assets/converted_mnist_model.tflite (tflite, 408224 bytes, 4 tensors)

dense/MatMul_bias f4 [128]
0	0xbbfe7c1c	-0.00776626
1	0xbe01a23f	-0.12659548
2	0xbe5c55cb	-0.21517102
3	0xbe1fc20d	-0.15601368
4	0xbdcf260d	-0.101146795
5	0x3e03aa8b	0.12858026
6	0x3c69ea4b	0.014277051
7	0xbe8497df	-0.25897118
8	0x3da5e1de	0.08099721
9	0x3dd7224b	0.10504588
10	0x3d88c89c	0.06678888
11	0xbe389bae	-0.18028137
12	0xbe944dc8	-0.28965592
13	0x3e6f8a67	0.2339264
14	0xbe1e4e54	-0.15459567
15	0xbe8f90ef	-0.28040263
16	0x3d57ef66	0.052718543
17	0xbe759c4a	-0.23985401
18	0x3e7d6d2d	0.24748679
19	0xbe9351ac	-0.28773248
20	0xbe4e226c	-0.20130318
21	0x3d0e15ad	0.03468864
22	0x3d79bbcf	0.060970124
23	0x3e820f1d	0.25402156
24	0xbe00b77f	-0.12569998
25	0xbe0ea40f	-0.13929771
26	0x3e0b774a	0.13619724
27	0xbe74a87e	-0.238924
28	0x3e40393f	0.18771838
29	0x3de51712	0.11186041
30	0x3e67cbc7	0.22636329
31	0x3e321b38	0.17393196
32	0x3dac5715	0.08415047
33	0xbd8d775f	-0.06907534
34	0x3b20a637	0.0024513134
35	0xbe0ba05e	-0.13635394
36	0x3e8815f4	0.2657925
37	0x3d9900ac	0.07470831
38	0xbc6661ad	-0.014061374
39	0xbe1449e2	-0.14481309
40	0xbd930f7b	-0.07180687
41	0xbd3bcb94	-0.045848444
42	0x3e35a5ad	0.17738982
43	0xbe2b780f	-0.16745017
44	0xbc062f50	-0.008189991
45	0xbde3e7df	-0.1112821
46	0x3eb9e06b	0.3630403
47	0x39bcd630	0.00036017736
48	0xbe87eecd	-0.26549378
49	0x3d7afb24	0.061274663
50	0xbcae5e83	-0.021285301
51	0xbdfd6264	-0.12372282
52	0xbe3271f6	-0.17426285
53	0xbe97319c	-0.29530036
54	0x3d158aef	0.03650945
55	0x3d4ead38	0.050458163
56	0x3d0bb596	0.03410872
57	0xbe05040c	-0.12989825
58	0xbe8711a3	-0.26380643
59	0xbbb509e5	-0.005524861
60	0xbddece49	-0.108791895
61	0xbd93e767	-0.07221871
62	0xbdb8d4f1	-0.0902499
63	0xbca47804	-0.02007676
64	0xbe7c5959	-0.24643458
65	0xbdfe84b4	-0.12427655
66	0xbdd00658	-0.1015746
67	0x3e431cf8	0.1905402
68	0x3e036830	0.12832713
69	0xbe972549	-0.29520634
70	0x3d0d5262	0.034502394
71	0xbb2cec8f	-0.0026386117
72	0xbccdac0c	-0.025106452
73	0xbe947e42	-0.29002577
74	0x3e6c4b73	0.23075657
75	0xbd5995ea	-0.053121485
76	0xbe173fc2	-0.14770415
77	0x3de1d3d4	0.11026731
78	0x3d454f08	0.048171073
79	0xbe1b9a32	-0.1519554
80	0xbda38b25	-0.07985524
81	0xbc894b8b	-0.016759655
82	0xbe8f2592	-0.2795835
83	0xbe654231	-0.22388531
84	0xbd0f7478	-0.035023183
85	0x3e8caa23	0.27473554
86	0x3ea3b812	0.31976372
87	0xbe361507	-0.17781459
88	0x3da14c3e	0.0787587
89	0x3ed42d27	0.41440699
90	0x3ce5f1dc	0.02806943
91	0xbdcb032f	-0.099127166
92	0x3e24d3d9	0.16096438
93	0xbd13bbd0	-0.036067784
94	0xbd0b525e	-0.0340141
95	0x3e27a334	0.16370851
96	0xbe9fd727	-0.31218836
97	0x3e4891e7	0.19586907
98	0xbe1a40c0	-0.15063763
99	0xbe0eb8df	-0.1393771
100	0xbdf9ff2c	-0.12206873
101	0xbc8804a5	-0.016603777
102	0x3e808a69	0.251056
103	0x3e8708eb	0.2637399
104	0x3e8cb8e9	0.27484825
105	0xbb4e8d60	-0.0031517372
106	0x3e8ee91f	0.27912232
107	0x3db3e8c6	0.087846324
108	0xbe19fddb	-0.15038244
109	0xbd021d0f	-0.031765994
110	0xbe472aa6	-0.19449863
111	0x3e30344c	0.1720745
112	0x3d608b2d	0.05482023
113	0xbe431718	-0.19051778
114	0xbb420869	-0.0029607064
115	0x3e8b2c00	0.27182007
116	0xbedf8bf0	-0.4366145
117	0x3c9ccae9	0.019139724
118	0xbf00df0a	-0.5034033
119	0x3e06fc98	0.13182294
120	0x3e0185a6	0.12648639
121	0x3db23429	0.08701355
122	0xbba24501	-0.0049520736
123	0x3d98bedd	0.07458279
124	0xbd87b4bd	-0.0662627
125	0xbd9b17c8	-0.07572895
126	0x3e540668	0.20705569
127	0xbe749779	-0.23885907

dense/kernel/transpose f4 [128, 784]
0	0x3c4a8b10	0.012362257
1	0xbcf488f6	-0.029850464
2	0x3d2ac850	0.04169494
3	0x3da21a2b	0.079151474
4	0xbd16c819	-0.03681192
5	0xbd765ee0	-0.060149074
6	0x3d17cfd4	0.037063435
7	0xbd7d38d6	-0.06182178
8	0xbd0cc00e	-0.034362845
9	0x3d81ae81	0.06332112
10	0xbcbb92ac	-0.022897087
11	0x3c92922c	0.017891966
12	0x3dbd187b	0.09233185
13	0xbc175dda	-0.009238685
14	0xbcf7c527	-0.030245377
15	0xbd6bc328	-0.057559162
16	0x3d5d9ac6	0.05410268
17	0xbc3e06f8	-0.011598341
18	0x3d4288de	0.047493808
19	0x3d941bef	0.072318904
20	0x3c80b040	0.015709043
21	0x3c7639d0	0.015028432
22	0x3cca50f4	0.024696805
23	0x3d0e279e	0.03470575
24	0xbcbbb460	-0.022913158
25	0x3d73f2c2	0.059557684
26	0x3d219150	0.03944522
27	0x3d4841de	0.04889094
28	0x3d8805ed	0.06641755
29	0xbd9de067	-0.07708817
30	0x3c972398	0.01844959
31	0xbd5f8c92	-0.054577418
32	0x3c86b17b	0.016442051
33	0xbcef474b	-0.0292088
34	0x3c988375	0.018617371
35	0x3e098ccb	0.13432615
36	0x3d8df99a	0.06932373
37	0x3dda3ebe	0.106564984
38	0xbd04ba60	-0.032404304
39	0x3d7b002e	0.06127947
40	0x3ed2a964	0.4114486
41	0x3eac5f0c	0.33666265
42	0xbcf5d21e	-0.030007418
43	0x3e969174	0.29407847
44	0x3ec46a80	0.38362503
45	0x3ec32b0b	0.38118777
46	0x3e887e35	0.26658788
47	0x3e4b8a9c	0.19877094
48	0x3e565227	0.20929776
49	0x3e396a1c	0.18106884
50	0x3d952eac	0.072842926
51	0xbd2c1f60	-0.04202211
52	0xbd74ef91	-0.05979878
53	0x3c7d61c8	0.015465207
54	0xbd5c45f8	-0.053777665
55	0x3d8e5001	0.06948853
56	0x3d9b50a9	0.07583744
57	0xbbe540f0	-0.0069962665
58	0x3d838fa4	0.06423882
59	0x3e850a3a	0.25984365
60	0x3e5d3240	0.216012
61	0x3deef646	0.11668067
62	0x3e28071c	0.16408962
63	0x3e92b01c	0.28649986
64	0x3ec5e9da	0.38654977
65	0x3dc7b842	0.09751941
66	0x3d4872a9	0.048937473
67	0x3ee7f1d9	0.45301703
68	0x3ca9a727	0.020709587
69	0xbd4627c3	-0.048377763
70	0xbdce4a40	-0.10072756
71	0x3d090694	0.03345354
72	0x3de0d594	0.10978237
73	0x3d9eb22c	0.07748827
74	0x3e4e0afa	0.20121375
75	0x3dd13efd	0.10217092
76	0xbbcc6701	-0.006237865
77	0x3e8cdac7	0.27510664
78	0x3df7f9d2	0.12108196
79	0x3e0adff0	0.13561988
80	0x3e2a8874	0.16653615
81	0xbc2a297b	-0.010385866
82	0x3ca22eac	0.019797646
83	0xbcf49d70	-0.029860228
84	0xbd7225b0	-0.059117973
85	0x3d158b76	0.036509953
86	0xbe804fce	-0.25060886
87	0x3e221118	0.15826833
88	0x3df60c0c	0.120140165
89	0x3e3a68d4	0.18204051
90	0x3e9bbeef	0.30419108
91	0x3ea7b81a	0.32757646
92	0x3e21a4e2	0.15785554
93	0x3ec2f856	0.3808009
94	0x3eb1d8dc	0.34735763
95	0x3f0d20c8	0.55128145
96	0x3e94f0bd	0.2908992
97	0x3f1e55d5	0.6184972
98	0x3e91aa2d	0.28450146
99	0x3e273e94	0.16332465
100	0x3e9ddfbc	0.30834758
101	0x3d0f779d	0.03502618
102	0xbd00c115	-0.031434137
103	0xbdf57c6e	-0.11986624
104	0x3ce6deee	0.028182473
105	0xba9ac322	-0.0011807422
106	0xbd1d0042	-0.038330324
107	0x3e51f670	0.20504165
108	0x3e1d4411	0.15357997
109	0xbe74efdf	-0.23919629
110	0xbcdad052	-0.026710663
111	0x3d6bc41a	0.057560064
112	0x3cf1eda0	0.029532254
113	0x3d35133e	0.044207804
114	0xbe3609ab	-0.17777126
115	0xbe4b191f	-0.19833802
116	0x3c7711f7	0.015079967
117	0x3c2f6f2d	0.010707659
118	0x3e5ad328	0.21369612
119	0x3e7a255b	0.24428312
120	0x3f199a02	0.6000062
121	0x3f7d8231	0.9902678
122	0x3f4b304c	0.7937057
123	0x3ed3684f	0.4129052
124	0x3e4464e1	0.19179107
125	0x3e490412	0.19630459
126	0xbd8a0674	-0.06739512
127	0x3e29a80c	0.16568011
128	0x3ed055fc	0.406906
129	0x3dda8276	0.10669415
130	0x3df1c548	0.118052065
131	0x3eba58a8	0.36395764
132	0x3df08780	0.117445946
133	0xbe8e2a36	-0.2776658
134	0x3d92e27d	0.071721055
135	0xbd94849c	-0.07251856
136	0xbeac081e	-0.33599943
137	0xbeeae25b	-0.4587582
138	0xbcfc6250	-0.030808598
139	0x3e9f6e6b	0.3113893
140	0xbd6e8311	-0.058230463
141	0x3c947694	0.018122949
142	0xbce3dfec	-0.027816735
143	0x3e1df41b	0.1542515
144	0x3de811a7	0.11331492
145	0xbe964d36	-0.29355782
146	0xbe6c70bf	-0.23089884
147	0xbe106187	-0.14099704
148	0xbd1664e8	-0.036717325
149	0xbda4598b	-0.080248915
150	0x3e99f936	0.30072945
151	0xbcaaf7e4	-0.020870157
152	0xbe312595	-0.17299493
153	0x3e831ecf	0.25609443
154	0x3dbd96be	0.092572674
155	0x3c289001	0.010288239
156	0x3db2ee4f	0.0873686
157	0xbe34aef8	-0.1764487
158	0xbe212669	-0.15737309
159	0x3e5e4a38	0.21708
160	0x3efaac72	0.4895969
161	0x3eabbe83	0.33543786
162	0x3ef54bc4	0.47909367
163	0x3e9df1f0	0.30848646
164	0x3e790382	0.24317744
165	0x3d24c3b5	0.040225703
166	0x3ed7d53e	0.42154878
167	0x3e90d892	0.2829023
168	0xbd7502f8	-0.059817284
169	0x3e0cc00d	0.13745137
170	0x3e6bb482	0.23018077
171	0x3ec14b91	0.37752965
172	0x3e401c92	0.18760899
173	0x3d49e61d	0.04929172
174	0x3d29e093	0.041473936
175	0xbe045384	-0.12922484
176	0xbdbc03af	-0.0918039
177	0xbe85eb46	-0.26156062
178	0xbec1e6c5	-0.37871376
179	0xbeacaa18	-0.3372352
180	0xbe1562c9	-0.14588465
181	0x3dcef802	0.101058975
182	0xbca611cd	-0.02027216
183	0xbcc35f78	-0.023849234
184	0x3d57ffef	0.05273431
185	0x3c6af66d	0.014340979
186	0xbe33efdd	-0.1757197
187	0xbd03fb29	-0.032221947
188	0xbe111ce7	-0.14171182
189	0xbd29fb22	-0.041499265
190	0x3dd167f8	0.102249086
191	0x3e35d927	0.17758618
192	0x3e7550cd	0.23956604
193	0x3e8a89b7	0.27058193
194	0x3e202f79	0.1564311
195	0x3e8a7e42	0.27049452
196	0x3c92fc3c	0.01794254
197	0x3d5c08cc	0.053719327
198	0x3e288f15	0.16460831
199	0x3ed95c22	0.42453104
200	0x3ef051fb	0.46937546
201	0xbd2480bb	-0.04016183
202	0xbe066b57	-0.13126884
203	0xbd22c78b	-0.03974108
204	0xbe7928de	-0.24331996
205	0xbe920ae7	-0.28523943
206	0xbe59afe2	-0.212585
207	0x3c0e87da	0.008699382
208	0x3d9abf35	0.07556001
209	0x3e1573a9	0.14594902
210	0x3d0ee604	0.03488733
211	0x3cff81b3	0.031189775
212	0xbdf8d0ca	-0.12149198
213	0x3d4a1d0f	0.04934412
214	0x3defeaee	0.11714731
215	0xbce4a502	-0.027910713
216	0xbdeb66dd	-0.11494229
217	0xbe978aff	-0.29598233
218	0xbe68251c	-0.22670406
219	0x3cbc7fb2	0.023010109
220	0x3ce467d1	0.027881535
221	0x3e235b95	0.15952905
222	0xbd910b55	-0.070822395
223	0x3e924789	0.28570202
224	0x3e74564e	0.23861048
225	0xbe0fc471	-0.1403978
226	0x3dd271b7	0.10275596
227	0x3e24c570	0.16090941
228	0x3e9fa9b7	0.3118417
229	0xbdcfd0a7	-0.10147219
230	0x3d637f17	0.055541124
231	0xbcd26e5e	-0.025687393
232	0xbd8dbe35	-0.06921045
233	0xbdb4a4eb	-0.08820518
234	0x3c9f6fc7	0.01946248
235	0x3d7e7f26	0.062132977
236	0x3e1bdd31	0.15221097
237	0xba8630a1	-0.0010237881
238	0x3e2773c4	0.16352755
239	0xbdf92f4e	-0.12167226
240	0xbe50fd2c	-0.20409077
241	0x3d8e6ca3	0.069543146
242	0x3df2b796	0.118514225
243	0x3dbb43f2	0.09143819
244	0x3d902afb	0.07039448
245	0xbe3e631b	-0.18592493
246	0xbdeaab56	-0.11458461
247	0xbe53f6ee	-0.20699665
248	0xbdb5b9cd	-0.08873329
249	0x3c1c810e	0.009552253
250	0x3c3ae7d9	0.011407816
251	0x3e496a43	0.19669442
252	0xbda63ea4	-0.081174165
253	0xbe223d90	-0.15843797
254	0x3d9f46e8	0.07777196
255	0x3df9e003	0.1220093

dense_1/MatMul_bias f4 [10]
0	0xbd8b6734	-0.06806794
1	0xbe64ea25	-0.22354944
2	0xbe72cbbe	-0.23710534
3	0xbe0731d1	-0.13202597
4	0x3e0e49e8	0.1389538
5	0xbdcff51c	-0.10154173
6	0xbd0ade71	-0.033903543
7	0xbe7d996c	-0.24765557
8	0x3f1b1ad7	0.6058783
9	0x3db7ceb9	0.08974976

dense_1/kernel/transpose f4 [10, 128]
0	0x3e21d207	0.15802775
1	0x3e3eafe2	0.18621781
2	0xbf28953f	-0.6585273
3	0xbeec6ebb	-0.4617823
4	0xbe897cff	-0.26853177
5	0x3ef7a225	0.48365894
6	0xbec7424a	-0.38917762
7	0xbf8e2aa3	-1.1106762
8	0x3e8c29f9	0.27375773
9	0x3ec02f54	0.37536108
10	0x3dbb133b	0.09134527
11	0x3e4db58a	0.20088783
12	0x3e613f36	0.2199677
13	0x3ea3b80c	0.31976354
14	0x3e20c409	0.15699781
15	0xbe0e0598	-0.13869321
16	0x3e41b29c	0.1891579
17	0x3e48fda7	0.1962801
18	0xbf613639	-0.8797336
19	0xbf26701a	-0.65014803
20	0xbf12cfb0	-0.57348156
21	0xbc6ece0c	-0.014575493
22	0xbf4fb934	-0.8114197
23	0x3dbf556a	0.09342463
24	0x3e1684f7	0.1469916
25	0xbed03dc1	-0.40672114
26	0xbeb17405	-0.34658828
27	0xbf7c734c	-0.9861343
28	0xbf5a1654	-0.8519032
29	0xbeb0a857	-0.34503433
30	0xbd45c3d7	-0.04828247
31	0x3f05729d	0.5212801
32	0xbd4a8aa6	-0.04944863
33	0xbd9c4ca3	-0.07631805
34	0xbf5421ba	-0.8286396
35	0x3e83c60c	0.25737035
36	0xbf6eb085	-0.932381
37	0xbe93d09e	-0.288701
38	0x3e740ae7	0.23832284
39	0x3de91699	0.11381263
40	0xbeb50c04	-0.3536073
41	0x3e7d683e	0.24746796
42	0x3c62d5a5	0.013844882
43	0xbdca882a	-0.098892525
44	0x3e21ce7f	0.15801428
45	0x3c90134c	0.017587326
46	0x3e222ffd	0.15838619
47	0x3e3a941e	0.18220565
48	0x3e8bb0e0	0.27283382
49	0xbfaa5935	-1.3308474
50	0xbca983a9	-0.020692663
51	0xbefc4d75	-0.49277845
52	0x3eb5dade	0.35518545
53	0x3eeac1cb	0.45850977
54	0x3ea6f64e	0.3260979
55	0x3e64681d	0.22305341
56	0xbccb20ce	-0.024795916
57	0x3dbe123d	0.092808224
58	0x3e349af8	0.17637241
59	0xbbc6c1f0	-0.0060655996
60	0x3e57845d	0.21046586
61	0x3e8f8358	0.28029895
62	0xbf700529	-0.93757874
63	0xbc4b0bd2	-0.012392955
64	0x3e9b2eaa	0.3030904
65	0xbf8b0181	-1.0859834
66	0xbf134fc6	-0.575436
67	0xbe89896c	-0.26862657
68	0xbf68c802	-0.9093019
69	0x3e198a22	0.149941
70	0x3e83f03e	0.25769228
71	0x3e14088b	0.14456384
72	0x3dcb808f	0.0993663
73	0x3df5abae	0.11995636
74	0x3df1bf78	0.11804098
75	0x3e7b5040	0.24542332
76	0xbefb11c4	-0.49036992
77	0xbdf16213	-0.11786284
78	0xbda4bdfe	-0.08044051
79	0xbf77e7dd	-0.9683817
80	0xbf486106	-0.78273046
81	0xbeb077d8	-0.34466434
82	0xbc861762	-0.016368572
83	0xbf0a6c56	-0.5407156
84	0xbf828912	-1.019808
85	0xbef7da15	-0.4840857
86	0xbdc16c29	-0.09444458
87	0x3eab4bc7	0.3345625
88	0xbf3d741b	-0.7400529
89	0x3ebcee9f	0.36900803
90	0x3e92722c	0.2860273
91	0xbdd7e79f	-0.10542225
92	0xbf772a5b	-0.96549004
93	0xbeeccabe	-0.4624843
94	0xbec7eca7	-0.3904774
95	0xbf5035c5	-0.81332046
96	0xbfafd329	-1.3736316
97	0xbfa5d71f	-1.2956275
98	0x3e9b7a4a	0.30366737
99	0x3dc9721d	0.098362185
100	0x3e1fce01	0.15605928
101	0x3e8a1d54	0.269755
102	0xbf29d4dc	-0.6634042
103	0x3f2a5d10	0.6654825
104	0x3e138ee1	0.14409973
105	0xbf5064d7	-0.8140387
106	0x3c95dc60	0.01829356
107	0x3e8ad3aa	0.27114612
108	0x3e07e971	0.13272645
109	0xbf332411	-0.6997691
110	0xbea2d90c	-0.3180622
111	0xbf0cf4bd	-0.5506094
112	0x3e1f5e41	0.15563299
113	0x3caef15f	0.02135533
114	0x3e30cf28	0.17266524
115	0x3da0cb1a	0.078512385
116	0xbf17e561	-0.5933438
117	0x3e37c555	0.1794637
118	0xbe9d4051	-0.30713132
119	0xbeeb2c18	-0.45932078
120	0xbe3d2bef	-0.1847379
121	0xbf7e791f	-0.99403566
122	0xbf8182d1	-1.0118047
123	0xbf6f138a	-0.9338919
124	0xbeecd1b9	-0.46253756
125	0xbf528c4a	-0.82245314
126	0xbe92e593	-0.28690776
127	0xbebad42c	-0.3649
128	0x3df06e32	0.11739768
129	0xbf6bd62b	-0.9212367
130	0x3e478399	0.19483794
131	0x3ecc48d7	0.39899322
132	0xbe9b3dec	-0.3032068
133	0x3ef2e6ef	0.47441813
134	0x3e88ff02	0.26757056
135	0xbe651d43	-0.22374444
136	0xbece8fce	-0.4034409
137	0x3f1e118f	0.6174554
138	0x3f382ce1	0.7194348
139	0xbe82cf96	-0.25549
140	0xbf24b54f	-0.64339155
141	0xbf713180	-0.94216156
142	0x3e4288ab	0.18997447
143	0xbf73d6a8	-0.95249414
144	0xbf7284fe	-0.9473418
145	0xbf047333	-0.5173828
146	0x3e957f41	0.2919865
147	0x3ea32092	0.31860787
148	0x3e2eceb1	0.17071034
149	0xbfacab53	-1.3489784
150	0xbf2bf392	-0.67168534
151	0xbdc80113	-0.0976583
152	0xbf6bc208	-0.92092943
153	0x3e4a0060	0.19726706
154	0xbddf5ab2	-0.10905971
155	0x3e78954c	0.24275702
156	0x3e5a62b8	0.2132672
157	0x3e1b28a6	0.15152225
158	0xbf0fac34	-0.56122136
159	0xbe4e1bc7	-0.20127784
160	0x3e6f4265	0.23365171
161	0xbf2d9c1b	-0.67816323
162	0x3d90e1d3	0.070743226
163	0x3d372a6b	0.044718187
164	0x3e70a22f	0.23499368
165	0xbe80c9fc	-0.25154102
166	0xbd3d4e9f	-0.046217557
167	0xbf098935	-0.53724986
168	0x3eddba2f	0.4330611
169	0x3db7192e	0.089403495
170	0xbeaa6592	-0.33280617
171	0xbca78c95	-0.020452777
172	0xbe20dc66	-0.15709075
173	0x3ef37ee6	0.47557753
174	0xbf8eb67c	-1.114944
175	0x3e2406f9	0.16018285
176	0xbee8834b	-0.4541267
177	0x3e299d42	0.16563895
178	0xbf198bfa	-0.5997921
179	0x3eac6cdb	0.336768
180	0xbe5b1abb	-0.21396916
181	0xbf610e1a	-0.8791214
182	0xbe786826	-0.2425848
183	0x3dd48f75	0.10378925
184	0x3dce9fef	0.10089099
185	0xbf06a06b	-0.5258853
186	0x3da83293	0.08212771
187	0x3dd18b85	0.10231689
188	0xbddafb48	-0.10692459
189	0xbe53627e	-0.2064304
190	0xbe02f9e2	-0.12790635
191	0x3e0cf2c8	0.13764489
192	0x3e8a597b	0.27021393
193	0xbdfcd60a	-0.12345512
194	0x3ea1910b	0.31555972
195	0xbe541fb1	-0.20715214
196	0xbda4b348	-0.08042008
197	0x3d9c3523	0.076273225
198	0xbfa41398	-1.281848
199	0x3df13fa2	0.11779715
200	0xbf932a4b	-1.1497282
201	0xbf3e36d4	-0.7430241
202	0x3dadc283	0.08484366
203	0xbc58066f	-0.013185128
204	0xbf4a91d7	-0.79128784
205	0x3ecf3792	0.40472084
206	0xbfb5f98f	-1.4216784
207	0x3ecbd897	0.39813682
208	0xbf38b5a8	-0.72152185
209	0x3f06a512	0.5259563
210	0x3ebe2a92	0.37141854
211	0x3d43fd9f	0.047849294
212	0xbd32d989	-0.04366449
213	0xbf4f17bb	-0.80895585
214	0x3e1396dd	0.14413019
215	0x3e84eb0d	0.2596058
216	0xbe1cf84c	-0.15329093
217	0x3efb1dc6	0.49046153
218	0xbf0c45a1	-0.54793745
219	0x3e1521ca	0.14563671
220	0xbdbe31bc	-0.0928683
221	0x3e616745	0.2201205
222	0xbf00c36b	-0.50298184
223	0x3ecac6bd	0.3960475
224	0xbf141195	-0.5783933
225	0x3ee0ba5c	0.4389218
226	0x3ee9d38f	0.4566922
227	0xbc34d102	-0.0110361595
228	0x3daaf187	0.08346849
229	0xbd66ac33	-0.056316566
230	0xbf3a4af6	-0.7277063
231	0x3ed9fd65	0.42576137
232	0x3ed0cfd0	0.40783548
233	0xbdb26f83	-0.087126754
234	0xbdebc5e2	-0.115123525
235	0xbf461686	-0.7737812
236	0x3ebdaf36	0.37047738
237	0x3e7f85dd	0.24953409
238	0xbf135379	-0.57549244
239	0x3f0b8f2a	0.54515326
240	0xbef81f82	-0.4846154
241	0x3ddf3079	0.10897917
242	0xbf496b2d	-0.7867916
243	0x3e9b2707	0.30303213
244	0x3e1bc0e6	0.15210304
245	0x3d094109	0.033509288
246	0x3d7ce247	0.061739232
247	0xbe297148	-0.1654712
248	0xbc8a1f3f	-0.016860602
249	0x3eae5938	0.34052444
250	0xbf43428c	-0.7627342
251	0x3de052c5	0.10953287
252	0x3ea2217d	0.31666175
253	0x3e51f526	0.20503673
254	0x3ec05f45	0.37572685
255	0x3e4d5fd0	0.20056081
